…
(15675, 48) (3919, 48) (15675,) (3919,)
Training...
Model summary
Model: "model"
__________________________________________________________________________________________________
 Layer (type)                   Output Shape         Param #     Connected to                     
==================================================================================================
 input_1 (InputLayer)           [(None, 48)]         0           []                               
                                                                                                  
 reshape (Reshape)              (None, 48, 1)        0           ['input_1[0][0]']                
                                                                                                  
 conv1d (Conv1D)                (None, 48, 32)       128         ['reshape[0][0]']                
                                                                                                  
 conv1d_1 (Conv1D)              (None, 48, 32)       3104        ['conv1d[0][0]']                 
                                                                                                  
 max_pooling1d (MaxPooling1D)   (None, 24, 32)       0           ['conv1d_1[0][0]']               
                                                                                                  
 conv1d_2 (Conv1D)              (None, 24, 64)       6208        ['max_pooling1d[0][0]']          
                                                                                                  
 conv1d_3 (Conv1D)              (None, 24, 64)       12352       ['conv1d_2[0][0]']               
                                                                                                  
 max_pooling1d_1 (MaxPooling1D)  (None, 12, 64)      0           ['conv1d_3[0][0]']               
                                                                                                  
 conv1d_4 (Conv1D)              (None, 12, 128)      24704       ['max_pooling1d_1[0][0]']        
                                                                                                  
 conv1d_5 (Conv1D)              (None, 12, 128)      49280       ['conv1d_4[0][0]']               
                                                                                                  
 max_pooling1d_2 (MaxPooling1D)  (None, 6, 128)      0           ['conv1d_5[0][0]']               
                                                                                                  
 conv1d_6 (Conv1D)              (None, 6, 256)       98560       ['max_pooling1d_2[0][0]']        
                                                                                                  
 conv1d_7 (Conv1D)              (None, 6, 256)       196864      ['conv1d_6[0][0]']               
                                                                                                  
 up_sampling1d (UpSampling1D)   (None, 12, 256)      0           ['conv1d_7[0][0]']               
                                                                                                  
 conv1d_8 (Conv1D)              (None, 12, 128)      32896       ['up_sampling1d[0][0]']          
                                                                                                  
 concatenate (Concatenate)      (None, 12, 256)      0           ['conv1d_5[0][0]',               
                                                                  'conv1d_8[0][0]']               
                                                                                                  
 conv1d_9 (Conv1D)              (None, 12, 128)      98432       ['concatenate[0][0]']            
                                                                                                  
 conv1d_10 (Conv1D)             (None, 12, 128)      49280       ['conv1d_9[0][0]']               
                                                                                                  
 up_sampling1d_1 (UpSampling1D)  (None, 24, 128)     0           ['conv1d_10[0][0]']              
                                                                                                  
 conv1d_11 (Conv1D)             (None, 24, 64)       8256        ['up_sampling1d_1[0][0]']        
                                                                                                  
 concatenate_1 (Concatenate)    (None, 24, 128)      0           ['conv1d_3[0][0]',               
                                                                  'conv1d_11[0][0]']              
                                                                                                  
 conv1d_12 (Conv1D)             (None, 24, 64)       24640       ['concatenate_1[0][0]']          
                                                                                                  
 conv1d_13 (Conv1D)             (None, 24, 64)       12352       ['conv1d_12[0][0]']              
                                                                                                  
 up_sampling1d_2 (UpSampling1D)  (None, 48, 64)      0           ['conv1d_13[0][0]']              
                                                                                                  
 conv1d_14 (Conv1D)             (None, 48, 32)       2080        ['up_sampling1d_2[0][0]']        
                                                                                                  
 concatenate_2 (Concatenate)    (None, 48, 64)       0           ['conv1d_1[0][0]',               
                                                                  'conv1d_14[0][0]']              
                                                                                                  
 conv1d_15 (Conv1D)             (None, 48, 32)       6176        ['concatenate_2[0][0]']          
                                                                                                  
 conv1d_16 (Conv1D)             (None, 48, 32)       3104        ['conv1d_15[0][0]']              
                                                                                                  
 conv1d_17 (Conv1D)             (None, 48, 1)        33          ['conv1d_16[0][0]']              
                                                                                                  
 flatten (Flatten)              (None, 48)           0           ['conv1d_17[0][0]']              
                                                                                                  
==================================================================================================
Total params: 628,449
Trainable params: 628,449
Non-trainable params: 0
__________________________________________________________________________________________________
…
