…
(12540, 48) (3135, 48) (12540, 48) (3135, 48)
Model...
Example summary
Model: "model"
__________________________________________________________________________________________________
 Layer (type)                   Output Shape         Param #     Connected to                     
==================================================================================================
 input_1 (InputLayer)           [(None, 48)]         0           []                               
                                                                                                  
 reshape (Reshape)              (None, 48, 1)        0           ['input_1[0][0]']                
                                                                                                  
 conv1d (Conv1D)                (None, 48, 16)       48          ['reshape[0][0]']                
                                                                                                  
 max_pooling1d (MaxPooling1D)   (None, 24, 16)       0           ['conv1d[0][0]']                 
                                                                                                  
 conv1d_1 (Conv1D)              (None, 24, 32)       1056        ['max_pooling1d[0][0]']          
                                                                                                  
 max_pooling1d_1 (MaxPooling1D)  (None, 12, 32)      0           ['conv1d_1[0][0]']               
                                                                                                  
 conv1d_2 (Conv1D)              (None, 12, 64)       4160        ['max_pooling1d_1[0][0]']        
                                                                                                  
 up_sampling1d (UpSampling1D)   (None, 24, 64)       0           ['conv1d_2[0][0]']               
                                                                                                  
 conv1d_3 (Conv1D)              (None, 24, 32)       2080        ['up_sampling1d[0][0]']          
                                                                                                  
 concatenate (Concatenate)      (None, 24, 64)       0           ['conv1d_1[0][0]',               
                                                                  'conv1d_3[0][0]']               
                                                                                                  
 conv1d_4 (Conv1D)              (None, 24, 32)       6176        ['concatenate[0][0]']            
                                                                                                  
 up_sampling1d_1 (UpSampling1D)  (None, 48, 32)      0           ['conv1d_4[0][0]']               
                                                                                                  
 conv1d_5 (Conv1D)              (None, 48, 16)       528         ['up_sampling1d_1[0][0]']        
                                                                                                  
 concatenate_1 (Concatenate)    (None, 48, 32)       0           ['conv1d[0][0]',                 
                                                                  'conv1d_5[0][0]']               
                                                                                                  
 conv1d_6 (Conv1D)              (None, 48, 16)       1552        ['concatenate_1[0][0]']          
                                                                                                  
 conv1d_7 (Conv1D)              (None, 48, 1)        17          ['conv1d_6[0][0]']               
                                                                                                  
 flatten (Flatten)              (None, 48)           0           ['conv1d_7[0][0]']               
                                                                                                  
==================================================================================================
Total params: 15,617
Trainable params: 15,617
Non-trainable params: 0
__________________________________________________________________________________________________
…
